src/interAIct/models/eye_detection_model.onnx (onnx, 213035 bytes, 38 tensors)

module1.sepConv1.depthwise.weight f4 [8, 1, 3, 3]
-0.0706433 -0.16859098 0.17019486 0.28343603 0.16219284 -0.25066635 -0.22012573 -0.13853346
-0.22626635 -0.012319885 -0.22979447 0.23535992 0.09465479 -0.22313088 -0.23448902 -0.18782772
-0.2735617 -0.22490188 -0.21057348 -0.13435192 0.11812154 0.32458496 -0.21151203 -0.24432237
0.047599483 0.064445615 0.20759971 0.2840935 -0.2826718 0.027559426 0.10774419 0.33343154
-0.2251655 0.04992275 0.3124132 -0.10282124 0.22721331 0.063774504 0.23571154 -0.1530891
0.2954067 0.0051554334 0.06387065 -0.16151895 -0.10610252 -0.13520393 -0.07334585 -0.18190998
-0.01015121 0.12080135 -0.13198727 -0.16508164 -0.22237396 0.27025893 0.07454232 -0.17437813
0.08763443 -0.28159854 -0.2896884 -0.26549557 0.073935576 0.09445701 -0.21281385 -0.22774418
0.047590166 -0.3784566 -0.0016809705 -0.16139351 0.18285584 0.30368182 -0.047042612 0.25789875
00000000: 6fad 90bd 1da3 2cbe 9047 2e3e 871e 913e
00000010: e115 263e 5757 80be a468 61be b7db 0dbe
00000020: 5eb2 67be 58d9 49bc 3e4f 6bbe 3102 713e
00000030: 5fda c13d 6c7c 64be e41d 70be e955 40be
00000040: 4710 8cbe ae4c 66be 93a0 57be 8d93 09be
00000050: b5e9 f13d 0030 a63e 9c96 58be a52f 7abe
00000060: adf7 423d 10fc 833d 0595 543e b474 913e
00000070: 5cba 90be 4ec4 e13c fca8 dc3d 8ab7 aa3e
00000080: c991 66be cc7b 4c3d 9ff4 9f3e f193 d2bd
00000090: 9baa 683e 359c 823d 5e5e 713e 64c3 1cbe
000000a0: 8c3f 973e e9ee a83b 9ece 823d 3965 25be
000000b0: 474c d9bd e672 0abe 5936 96bd 9c46 3abe
000000c0: 4351 26bc b366 f73d ac27 07be 290b 29be
000000d0: 00b6 63be 615f 8a3e a5a9 983d 2e90 32be
000000e0: ae79 b33d af2d 90be 0a52 94be 09ef 87be
000000f0: 896b 973d ad72 c13d e0eb 59be c535 69be
00000100: e8ed 423d 10c5 c1be 0354 dcba 5744 25be
00000110: 903e 3b3e 2f7c 9b3e c1af 40bd 4e0b 843e

module1.sepConv2.depthwise.weight f4 [16, 1, 3, 3]
0.2302335 -0.22801322 -0.023124663 0.2379451 0.2956492 0.093930766 -0.22996955 -0.23120804
0.05976537 -0.1926257 0.029757954 -0.27533868 -0.024647534 0.06566722 0.20209862 -0.23302868
0.07151532 0.14028342 -0.25519383 0.24194986 0.123142496 -0.23969449 0.008121711 0.18247093
0.040278323 0.07129306 0.17882758 0.24657905 -0.20544131 0.039632987 0.3330583 -0.110752195
-0.061486322 -0.18205589 -0.31658268 -0.34039342 -0.1502493 -0.06830506 0.29540092 -0.21981579
0.109560646 0.22569025 -0.0741887 -0.15569915 0.1944376 0.26031387 -0.19159354 0.019686947
0.18648958 0.22903836 -0.10520014 -0.28894833 0.32606864 0.2813929 -0.15918389 0.3225815
-0.053516466 -0.032442644 0.023248415 0.15764388 -0.06113874 0.18783794 0.031106388 -0.12444909
0.1790114 -0.3007401 0.09252636 0.010177079 0.22463214 -0.30027226 -0.106013685 0.3388953
0.2637427 -0.3065377 -0.03547083 -0.14285819 -0.08415301 0.23769142 0.13311654 -0.20197237
0.20658854 -0.26326624 -0.08321432 -0.027981732 0.04166952 -0.22102983 -0.03521021 0.12545112
0.0920871 0.146504 -0.24037562 -0.1683441 0.12454296 -0.056958083 0.14383906 -0.083056435
-0.1811587 -0.07168109 -0.04343289 0.21105461 0.19291109 -0.20146379 -0.33660766 -0.19158627
-0.21639305 -0.082850836 0.2184102 0.31579283 -0.057678547 0.28078902 -0.21446952 -0.12725544
0.2824745 -0.14773294 -0.14894477 0.34348077 0.30697343 -0.031847205 0.032394946 -0.25507155
-0.21789302 -0.14511403 -0.15925756 -0.24779831 -0.06857496 -0.1275206 0.185459 -0.1825436
0.23142369 0.10726602 0.07324882 0.058927458 -0.32030416 0.052306116 -0.00939398 0.14527553
0.07883785 -0.11486943 0.23272143 0.25770816 0.00097569113 0.2777508 -0.028414294 -0.2698734
00000000: 55c2 6b3e 4c7c 69be ef6f bdbc e1a7 733e
00000010: 555f 973e c65e c03d 237d 6bbe cdc1 6cbe
00000020: 88cc 743d ac3f 45be f4c6 f33c 31f9 8cbe
00000030: a0e9 c9bc 897c 863d f1f2 4e3e 129f 6ebe
00000040: a076 923d 75a6 0f3e c4a8 82be b4c1 773e
00000050: 2232 fc3d 7972 75be ed10 053c a9d9 3a3e
00000060: e2fa 243d 1902 923d 941e 373e 387f 7c3e
00000070: 355f 52be 3356 223d 9e86 aa3e 0cd2 e2bd
00000080: 15d9 7bbd dc6c 3abe 2017 a2be 0c48 aebe
00000090: f4da 19be 86e3 8bbd ca3e 973e 6417 61be
000000a0: 5561 e03d 581b 673e 3ff0 97bd 996f 1fbe
000000b0: a61a 473e dc47 853e 1931 44be 8546 a13c
000000c0: 20f7 3e3e 0889 6a3e 2c73 d7bd 09f1 93be
000000d0: 78f2 a63e bb12 903e 1a01 23be 6729 a53e
000000e0: 1534 5bbd 94e2 04bd 7673 be3c 666d 213e
000000f0: 9e6c 7abd 9758 403e d3d2 fe3c 2adf febd
00000100: c44e 373e 9bfa 99be 767e bd3d c3bd 263c
00000110: f805 663e 49bd 99be b41d d9bd af83 ad3e
00000120: 4809 873e 82f2 9cbe dc49 11bd 6b49 12be
00000130: 6a58 acbd 6165 733e b44f 083e d8d1 4ebe
00000140: f28b 533e d5ca 86be 456c aabd f239 e5bc
00000150: a9ad 2a3d a555 62be 9538 10bd 4276 003e
00000160: 2998 bc3d 2505 163e 0725 76be 6562 2cbe
00000170: 6110 ff3d e14c 69bd 8c4a 133e 7e19 aabd
00000180: ab81 39be 89cd 92bd b0e6 31bd b31e 583e
00000190: 7c8a 453e 864c 4ebe d757 acbe 312f 44be
000001a0: 2496 5dbe b3ad a9bd eca6 5f3e 99af a13e
000001b0: 5740 6cbd 94c3 8f3e e69d 5bbe 404f 02be
000001c0: 7fa0 903e 4e47 17be fa84 18be b6dc af3e
000001d0: 9f2b 9d3e 3772 02bd 90b0 043d bd98 82be
000001e0: 591f 5fbe c698 14be 6a14 23be d7be 7dbe
000001f0: 0771 8cbd c394 02be f7e8 3d3e b6ec 3abe
00000200: 55fa 6c3e 49ae db3d 7a03 963d eb5d 713d
00000210: e8fe a3be f03e 563d 35e9 19bc 1cc3 143e
00000220: bd75 a13d aa40 ebbd 874e 6e3e 53f2 833e
00000230: 86c5 7f3a 5a35 8e3e 18c5 e8bc d92c 8abe

module2.sepConv1.depthwise.weight f4 [16, 1, 3, 3]
-0.20049219 0.040449776 -0.026538474 0.09396786 0.02480367 0.30266833 -0.23416643 0.05988086
-0.24937354 0.17306955 0.02628996 0.12175196 -0.010685032 0.23448758 0.10490011 0.1568986
-0.13493685 -0.056733042 -0.04340692 0.32056102 0.30879685 -0.28407696 0.31357017 0.051450327
0.2673139 0.20874974 -0.343211 -0.16317864 0.054018266 -0.23978056 -0.1723074 -0.16933481
0.14176735 -0.051474243 -0.27352357 -0.11581307 0.23289044 0.07738927 -0.08133287 0.078780666
0.22936891 -0.36719847 0.054974344 -0.04324666 -0.03435064 0.12805738 0.16591819 -0.21789768
-0.31940913 0.28287047 0.061698012 -0.044068757 -0.07832881 0.05141819 0.3215924 0.26138464
0.10234806 -0.014262503 0.13012297 0.19983843 0.07682573 -0.21898964 0.2680349 -0.15430737
0.24694031 0.16126715 0.022937283 -0.3117041 -0.037583113 0.16269077 0.33140814 0.27801266
-0.095904686 -0.06525385 0.08539345 0.22984685 0.067192785 0.20979983 -0.08932564 -0.1885328
-0.165308 0.27343225 -0.14827985 0.17140457 -0.18667738 0.24851339 0.13718827 -0.030794421
0.3133931 -0.28529933 0.2137932 -0.15528247 -0.043463603 -0.3195851 0.27015084 -0.22506121
0.09973481 0.06575758 0.23520377 0.23982106 0.27613553 0.08036549 0.07035137 -0.07931712
0.033812188 0.16692896 0.009893824 0.22233851 0.19914404 -0.18997104 0.2576733 0.30057806
-0.030917723 0.098000675 -0.1739849 -0.3139111 0.09206099 0.25838298 -0.28470108 0.1329462
-0.07970718 -0.19471173 0.17807776 -0.14629404 -0.1611929 0.35253006 -0.25601995 0.2713074
0.17045014 -0.12927267 0.17576535 -0.09525379 -0.026611798 -0.2830587 0.020361606 -0.16834892
-0.1451903 -0.33832172 0.033915814 0.16050117 -0.19808471 0.32593957 0.2119757 0.28453627
00000000: d34d 4dbe aaae 253d 3767 d9bc 3972 c03d
00000010: 1131 cb3c 58f7 9a3e 53c9 6fbe a245 753d
00000020: c75b 7fbe 2539 313e 0b5e d73c 1759 f93d
00000030: 4610 2fbc 831d 703e ded5 d63d 07aa 203e
00000040: e32c 0abe e860 68bd 74cb 31bd 9320 a43e
00000050: 9f1a 9e3e 8972 91be 458c a03e 94bd 523d
00000060: 5edd 883e 7ec2 553e 5ab9 afbe 4d18 27be
00000070: 4242 5d3d 0989 75be 5a71 30be 1b66 2dbe
00000080: 762b 113e a8d6 52bd 480b 8cbe 672f edbd
00000090: d57a 6e3e 447e 9e3d d991 a6bd c257 a13d
000000a0: afdf 6a3e 7001 bcbe c72c 613d 6923 31bd
000000b0: 42b3 0cbd 7921 033e 75e6 293e 9220 5fbe
000000c0: 9889 a3be 66d4 903e 0eb7 7c3d 7181 34bd
000000d0: db6a a0bd e19b 523d c2a7 a43e 35d4 853e
000000e0: dc9b d13d 46ad 69bc f53e 053e 72a2 4c3e
000000f0: cf56 9d3d d23e 60be df3b 893e c002 1ebe
00000100: ecdd 7c3e 3723 253e f8e6 bb3c ae97 9fbe
00000110: c0f0 19bd 6998 263e 54ae a93e ad57 8e3e
00000120: ad69 c4bd cfa3 85bd c3e2 ae3d f95c 6b3e
00000130: 5f9c 893d c4d5 563e 5cf0 b6bd be0e 41be
00000140: 8046 29be 50ff 8b3e acd6 17be ae84 2f3e
00000150: 5b28 3fbe 4b7a 7e3e 157b 0c3e 9544 fcbc
00000160: 0f75 a03e c112 92be 9bec 5a3e 5e02 1fbe
00000170: e406 32bd a9a0 a3be 3651 8a3e 7276 66be
00000180: c441 cc3d e9ab 863d 42d9 703e a793 753e
00000190: a361 8d3e a996 a43d 6114 903d 0471 a2bd
000001a0: a67e 0a3d 6def 2a3e b519 223c b5ac 633e
000001b0: 6aec 4b3e c587 42be c1ed 833e 5ee5 993e
000001c0: 2a47 fdbc 94b4 c83d 1929 32be f5b8 a0be
000001d0: 798a bc3d c64a 843e 57c4 91be 0c23 083e
000001e0: 853d a3bd 8362 47be 045a 363e 1bce 15be
000001f0: c00f 25be d27e b43e 0c15 83be cee8 8a3e
00000200: 7b8a 2e3e 0e60 04be d5fb 333e 6b14 c3bd
00000210: fc00 dabc 12ed 90be 62cd a63c a963 2cbe
00000220: c4ac 14be 8138 adbe 4feb 0a3d 6b5a 243e
00000230: b8d6 4abe 8de1 a63e 2810 593e bdae 913e

module2.sepConv2.depthwise.weight f4 [32, 1, 3, 3]
0.079936296 -0.06743111 0.31712237 -0.29187158 0.11397661 -0.049280062 0.18679012 0.003671432
0.11310008 0.13413383 -0.32663807 -0.25602815 -0.2582455 -0.29154354 -0.13549803 0.1957087
0.16849314 -0.33719707 0.2946859 -0.07730213 0.14421263 0.22505718 -0.34676346 -0.1965333
0.018018512 -0.12733372 -0.31174624 0.2759696 0.12770326 -0.16826211 0.2380112 0.23286241
0.14977655 0.25423196 0.14820728 0.21251447 -0.07945799 0.23449755 -0.29923034 -0.28489217
-0.22928265 0.06731718 -0.14009827 0.21053413 0.3157076 0.23332947 0.27508292 -0.113253705
-0.09341319 0.19230285 0.04708348 -0.19071299 -0.13273792 0.009439237 0.10955682 -0.11339647
0.24861509 -0.012973401 0.07433971 -0.2736259 0.3331053 -0.33866343 0.13316232 -0.046384033
0.026254104 0.2394467 0.30676323 -0.18648413 -0.058842607 0.19450878 0.23960781 -0.174001
0.21225794 -0.16592993 -0.07674266 -0.28368098 0.1914339 -0.20860837 -0.039480742 -0.040144093
0.2951906 -0.043245602 -0.1554453 0.29302508 -0.14867626 0.27701148 0.03482568 0.21764587
0.30141902 -0.16050263 -0.015905928 0.07001039 0.01641525 -0.062407974 -0.16420992 0.3035203
-0.19365898 0.18457958 -0.12003159 0.22253203 -0.17902601 0.221435 0.048364203 0.043989755
-0.26216784 0.16681524 0.07872711 -0.16483021 -0.18309519 -0.21096946 0.3198477 -0.110320486
-0.24026965 0.32446834 0.16878909 -0.21041678 0.24299741 0.14018442 -0.3522782 0.32803872
0.027854748 0.29002008 0.21483013 -0.0473999 -0.1468502 -0.14460008 -0.06100942 -0.030234804
-0.021774257 -0.27220228 -0.12832 0.2633329 0.10441726 -0.33134025 0.01711965 -0.3023853
-0.31526953 0.12445871 0.12305378 -0.10024259 -0.14160523 -0.19345622 0.2750317 0.06811222
0.3040376 -0.18302204 -0.20541921 0.25600475 0.09852795 0.12328133 0.0004615494 -0.019104455
-0.14220335 -0.2307929 0.07462239 0.16245121 -0.16719986 -0.056389757 0.21464822 -0.2683773
0.046240687 -0.012829921 -0.046439603 0.25910857 -0.07534286 0.042735487 0.16429898 -0.04810905
0.15899923 -0.23019712 -0.12794732 0.31028453 -0.22084981 -0.0454473 -0.24850938 -0.029922891
-0.013296596 -0.015670344 0.09246854 -0.15413573 -0.10809241 0.00031972784 -0.20444058 0.2886483
0.13722642 -0.08366118 0.14455564 -0.27211857 -0.32895446 0.052972738 -0.088425234 0.33084977
-0.071394846 0.26967385 -0.3151346 -0.17801182 -0.22787768 -0.14017916 0.043595605 0.31187987
0.29450157 -0.21509802 -0.23224385 0.059370186 0.28108686 0.10040768 0.20361897 -0.053381197
-0.17301112 0.15534808 0.30896723 0.25019705 0.13346615 -0.26503572 -0.32282627 0.26908335
-0.25143826 -0.27041444 0.044497658 -0.21143517 0.13380003 -0.000664953 0.29922998 0.12162439
-0.2696206 -0.1046707 0.15226214 0.258937 0.08218217 0.087208055 -0.2533543 0.3041687
-0.06168444 -0.13049985 -0.29287845 -0.08543874 0.2462859 0.18415561 0.36596608 -0.23153695
-0.08921676 0.032590423 0.27952918 0.2184113 0.017402055 0.1909035 -0.13524443 -0.004854273
-0.10427327 0.23516947 0.15482794 -0.14998832 0.2989711 -0.0871787 -0.25186455 0.09430567
00000000: a4b5 a33d 5219 8abd dd5d a23e 3170 95be
00000010: 926c e93d e4d9 49bd e945 3f3e 689c 703b
00000020: 04a1 e73d 615a 093e 1b3d a7be 1f16 83be
00000030: c138 84be 3245 95be ffbf 0abe dd67 483e
00000040: 7789 2c3e 18a5 acbe 12e1 963e 9450 9ebd
00000050: 7aac 133e 6475 663e fb8a b1be 0740 49be
00000060: 8f9b 933c c563 02be 349d 9fbe e34b 8d3e
00000070: a5c4 023e e74c 2cbe 35b9 733e 7c73 6e3e
00000080: 065f 193e b12a 823e a6c3 173e 659d 593e
00000090: dfba a2bd 2020 703e b834 99be 63dd 91be
000000a0: 12c9 6abe 97dd 893d ec75 0fbe 4296 573e
000000b0: 6da4 a13e eced 6e3e abd7 8c3e 8ff1 e7bd
000000c0: 6a4f bfbd 0aeb 443e 9bda 403d 444a 43be
000000d0: 73ec 07be 08a7 1a3c 535f e03d 693c e8bd
000000e0: f494 7e3e 638e 54bc 6b3f 983d b218 8cbe
000000f0: c78c aa3e 4b65 adbe b45b 083e 2ffd 3dbd
00000100: d912 d73c 8431 753e 1210 9d3e b2f5 3ebe
00000110: f204 71bd 4f2d 473e c05b 753e 512d 32be
00000120: 255a 593e 89e9 29be 412b 9dbd a23e 91be
00000130: 4007 443e 6f9d 55be 8fb6 21bd 226e 24bd
00000140: 3923 973e 4d22 31bd 0d2d 1fbe 6207 963e
00000150: 973e 18be 73d4 8d3e 5fa5 0e3d 8fde 5e3e
00000160: 9853 9a3e cd5a 24be 264d 82bc 9b61 8f3d
00000170: 4679 863c 819f 7fbd a526 28be 0367 9b3e
00000180: 8a4e 46be 6e02 3d3e 1fd3 f5bd 70df 633e
00000190: 9852 37be dbbf 623e 8b19 463d 9a2e 343d
000001a0: dd3a 86be 9dd1 2a3e ae3b a13d 40c9 28be
000001b0: 4e7d 3bbe 6108 58be 14c3 a33e b5ef e1bd
000001c0: 3f09 76be b720 a63e 0cd7 2c3e 7f77 57be
000001d0: 50d4 783e 818c 0f3e cf5d b4be b1f4 a73e
000001e0: a42f e43c 837d 943e 6efc 5b3e 6626 42bd
000001f0: e65f 16be 0b12 14be 03e5 79bd fbae f7bc
00000200: ed5f b2bc 195e 8bbe 5166 03be 92d3 863e
00000210: b7d8 d53d 6ea5 a9be 823e 8c3c 3fd2 9abe
00000220: 026b a1be 35e4 fe3d 9f03 fc3d fd4b cdbd
00000230: f600 11be 6319 46be f4d0 8c3e 6b7e 8b3d
00000240: d1aa 9b3e 216a 3bbe 6a59 52be 0e13 833e
00000250: 06c9 c93d ec7a fc3d 1dfc f139 f280 9cbc
00000260: c19d 11be f954 6cbe a0d3 983d 9c59 263e
00000270: 7136 2bbe f2f8 66bd becc 5b3e c068 89be
00000280: e066 3d3d 9734 52bc 7437 3ebd e1a9 843e
00000290: 5b4d 9abd 680b 2f3d fe3d 283e ff0d 45bd
000002a0: b2d0 223e cbb8 6bbe 9f04 03be 9ddd 9e3e
000002b0: 7426 62be f326 3abd 3e79 7ebe da20 f5bc
000002c0: f7d9 59bc 185f 80bc 2560 bd3d c2d5 1dbe
000002d0: 8e5f ddbd 25a1 a739 df58 51be b6c9 933e
000002e0: 1585 0c3e 8e56 abbd 6506 143e 2053 8bbe
000002f0: b86c a8be f1f9 583d 4a18 b5bd 2465 a93e
00000300: 7637 92bd b112 8a3e 5359 a1be bb48 36be
00000310: c458 69be 208b 0fbe 4e91 323d b8ae 9f3e
00000320: e9c8 963e a842 5cbe 55d1 6dbe 272e 733d
00000330: 9eea 8f3e 8ba2 cd3d 7e81 503e 3ea6 5abd
00000340: d429 31be 9113 1f3e f430 9e3e d419 803e
00000350: 5aab 083e c3b2 87be 7c49 a5be 4bc5 893e
00000360: 84bc 80be c373 8abe 2d43 363d 7682 58be
00000370: e002 093e 3e50 2eba ac34 993e 3516 f93d
00000380: b60b 8abe 985d d6bd 9bea 1b3e 6493 843e
00000390: 204f a83d 239a b23d a8b7 81be 00bc 9b3e
000003a0: d3a8 7cbd c1a1 05be 2af4 95be 82fa aebd
000003b0: 5f32 7c3e 4a93 3c3e e85f bb3e 0618 6dbe
000003c0: 47b7 b6bd 897d 053d 731e 8f3e 36a7 5f3e
000003d0: c18e 8e3c 357c 433e 847d 0abe 9810 9fbb
000003e0: 398d d5bd 44d0 703e 378b 1e3e 8a96 19be
000003f0: bd12 993e bf8a b2bd 64f4 80be 5523 c13d

module3.sepConv1.depthwise.weight f4 [32, 1, 3, 3]
-0.011615893 -0.023443183 0.16681606 0.11416288 0.10736225 0.1270698 -0.1641361 -0.054654084
-0.2924248 -0.2218145 -0.30647674 -0.19755736 -0.015655134 -0.19730264 -0.10934722 0.1416298
0.15182588 0.025111951 -0.119368605 -0.25445625 -0.08664664 -0.089233406 -0.04426671 -0.18867503
-0.1359019 0.06911851 0.35565183 -0.29184523 -0.16835356 -0.007101791 -0.25573912 0.08653787
0.075639665 0.0118530085 0.21432091 0.19345962 -0.18406893 -0.31368223 0.07615903 -0.19250825
-0.203166 -0.2985382 -0.03921407 0.27264723 0.2275761 0.051237993 -0.06216519 0.19218494
-0.056319304 -0.28627855 0.1100397 -0.18602073 -0.09371534 0.114818946 0.008634865 0.14724706
-0.011793388 -0.18257622 -0.13541217 0.16108476 0.20714518 0.14342013 0.029511962 -0.33970773
0.049585853 -0.08317173 -0.02135792 0.0653931 0.17122349 0.2917609 0.1413322 -0.08439252
-0.03343361 0.3355647 0.1489002 -0.14723925 -0.27229452 -0.087922156 0.22134833 -0.10640568
0.17630109 -0.07604282 0.32087243 0.21424617 0.016858257 0.013783042 0.035083454 0.01994829
0.098480955 -0.1627709 0.1378527 -0.11533943 -0.22138253 0.092561424 0.01286556 0.048057105
0.10610456 -0.04189272 -0.28093633 -0.13336174 -0.14705372 0.06992094 -0.04054701 -0.22720304
-0.2417995 -0.21807224 -0.29227668 -0.0060023824 -0.009161152 0.029606597 0.06371493 -0.009437148
0.27653825 0.21061115 0.03527256 0.110125825 -0.12907289 -0.14414485 -0.030330345 -0.026340628
-0.3019101 -0.34236494 0.13352238 0.28530815 0.19022432 -0.0848106 0.2275553 0.27219993
-0.0047408855 -0.25821728 0.3423177 -0.16953315 -0.100807145 -0.19083811 -0.1366147 -0.014066909
0.08369006 -0.10062107 -0.3174338 -0.27890462 0.05697322 0.23139991 -0.22563486 0.18323463
0.3062509 0.045288343 -0.02314476 -0.06241702 0.24011868 0.046018805 0.2867338 0.108376026
-0.27396795 -0.2574589 0.16613427 -0.01691369 -0.3259112 -0.25857565 -0.07844398 -0.09471912
0.03581584 0.12695666 -0.10035388 -0.29093724 0.10678385 -0.06983357 0.20830987 -0.20293629
0.21245049 0.051522158 0.1795572 0.23621319 -0.110906474 -0.16329272 -0.29073414 0.18163358
-0.1700092 0.25448847 -0.15698366 0.28613558 0.16854215 -0.21098046 0.18595842 -0.2840037
0.050918978 0.046675112 0.10549523 -0.3422896 0.048654158 -0.20741911 0.3006093 0.050904345
-0.03708905 0.29133 0.10649671 -0.0002655523 -0.32366195 -0.29166034 0.28698498 -0.10348433
0.13266729 0.19816971 -0.3034047 -0.18551916 0.20529427 0.2853567 0.27018052 -0.22294632
-0.28690356 0.08757017 -0.20734109 0.2425159 -0.073779956 0.04870022 -0.063946106 0.04174614
0.08948067 0.23614077 0.038358323 -0.1975919 -0.11118597 0.23811918 0.004715785 0.057629257
0.2289019 0.060644824 -0.15540342 0.16132063 -0.2962027 -0.061046142 0.15826902 -0.13784683
0.3065082 0.1804557 0.013490578 -0.09923384 0.10709962 -0.081506304 -0.3071422 -0.1819451
-0.028537514 -0.34703803 0.22455525 -0.27664888 0.21695164 -0.30208802 -0.15556434 0.15453416
-0.3147627 -0.0036668873 -0.10877735 -0.2652702 -0.08396457 -0.0024819686 0.30739447 -0.29103
00000000: 9650 3ebc eb0b c0bc d4d1 2a3e 3ace e93d
00000010: bde0 db3d 961e 023e 4b13 28be f6dc 5fbd
00000020: b4b8 95be 5723 63be 85ea 9cbe 7a4c 4abe
00000030: 323f 80bc b409 4abe 6ff1 dfbd 6707 113e
00000040: 3e78 1b3e 94b7 cd3c 8777 f4bd 1748 82be
00000050: cb73 b1bd 01c0 b6bd 0251 35bd 0734 41be
00000060: de29 0bbe 018e 8d3d ff17 b63e bd6c 95be
00000070: e064 2cbe 24b6 e8bb 3df0 82be c43a b13d
00000080: f8e8 9a3d 1f33 423c f176 5b3e 471a 463e
00000090: 917c 3cbe f59a a0be 44f9 9b3d e220 45be
000000a0: bf0a 50be 00da 98be ef9e 20bd 6b98 8b3e
000000b0: b609 693e eede 513d eda0 7ebd 21cc 443e
000000c0: 12af 66bd 1a93 92be 7f5c e13d 387c 3ebe
000000d0: d4ed bfbd 3226 eb3d 4079 0d3c efc7 163e
000000e0: 0e39 41bc 43f5 3abe 7da9 0abe 67f3 243e
000000f0: de1d 543e badc 123e 12c3 f13c 2cee adbe
00000100: 891a 4b3d f155 aabd cef6 aebc d1ec 853d
00000110: 3655 2f3e af61 953e 63b9 103e fcd5 acbd
00000120: aef1 08bd 23cf ab3e 4b79 183e e3c5 16be
00000130: 306a 8bbe 8810 b4bd 23a9 623e 39eb d9bd
00000140: 4688 343e 57bc 9bbd 6449 a43e 5963 5b3e
00000150: 541a 8a3c 45d2 613c abb3 0f3d 996a a33c
00000160: 62b0 c93d 6aad 26be 4229 0d3e 1437 ecbd
00000170: 1ab2 62be d890 bd3d 12ca 523c 87d7 443d
00000180: 594d d93d b397 2bbd e3d6 8fbe fb8f 08be
00000190: 4095 16be b632 8f3d 9f14 26bd eaa7 68be
000001a0: 4a9a 77be 544e 5fbe 4aa5 95be a2af c4bb
000001b0: a818 16bc 8989 f23c f97c 823d 459e 1abc
000001c0: 6c96 8d3e 73aa 573e f679 103d a689 e13d
000001d0: af2b 04be b59a 13be 5877 f8bc 4dc8 d7bc
000001e0: f693 9abe 754a afbe 17ba 083e e913 923e
000001f0: 2aca 423e 2eb1 adbd 4204 693e ca5d 8b3e
00000200: 6e59 9bbb 0e35 84be 4444 af3e 199a 2dbe
00000210: fa73 cebd 116b 43be b9e4 0bbe e578 66bc
00000220: b265 ab3d 6b12 cebd af86 a2be 96cc 8ebe
00000230: c05c 693d 19f4 6c3e d30c 67be dca1 3b3e
00000240: ebcc 9c3e 4580 393d 149a bdbc fda8 7fbd
00000250: ace1 753e 377e 3c3d c6ce 923e 40f4 dd3d
00000260: 8745 8cbe a7d1 83be 1a1f 2a3e 948e 8abc
00000270: d5dd a6be 0764 84be 3da7 a0bd 19fc c1bd
00000280: a1b3 123d ed00 023e 5686 cdbd baf5 94be
00000290: 7eb1 da3d e704 8fbd 2f4f 553e 88ce 4fbe
000002a0: 9f8c 593e e608 533d d8dd 373e dfe1 713e
000002b0: ef22 e3bd 3536 27be 1bdb 94be 27fe 393e
000002c0: e416 2ebe 504c 823e 53c0 20be 5d80 923e
000002d0: 5096 2c3e 430b 58be e26b 3e3e ef68 91be
000002e0: 6b90 503d 672e 3f3d e20d d83d 9540 afbe
000002f0: 9549 473d ad65 54be 76e9 993e 1381 503d
00000300: b0ea 17bd 3529 953e f21a da3d d439 8bb9
00000310: 05b7 a5be 8154 95be b2ef 923e 98ef d3bd
00000320: efd9 073e 00ed 4a3e dc57 9bbe bcf8 3dbe
00000330: a938 523e 461a 923e 1a55 8a3e 0a4c 64be
00000340: 06e5 92be fd57 b33d 3951 54be 1756 783e
00000350: f219 97bd e279 473d 2df6 82bd 00fe 2a3d
00000360: a441 b73d e3ce 713e 9e1d 1d3d 8855 4abe
00000370: 78b5 e3bd 84d5 733e df86 9a3b a80c 6c3d
00000380: 4265 6a3e b566 783d 1322 1fbe 3c31 253e
00000390: e1a7 97be 850b 7abd 4611 223e b827 0dbe
000003a0: a5ee 9c3e 61c9 383e 9607 5d3c 1d3b cbbd
000003b0: 0c57 db3d c7ec a6bd be41 9dbe d14f 3abe
000003c0: 81c7 e9bc f8ae b1be d0f1 653e eca4 8dbe
000003d0: 9228 5e3e 48ab 9abe 424c 1fbe 343e 1e3e
000003e0: 9428 a1be 2950 70bb a9c6 debd 7fd1 87be
000003f0: 9ef5 abbd 86a8 22bb cf62 9d3e e201 95be

module3.sepConv2.depthwise.weight f4 [64, 1, 3, 3]
0.12096612 -0.3108977 -0.22808222 0.032877523 -0.1606925 0.26632425 0.05615637 0.08482422
-0.25613922 0.14680532 -0.16173568 -0.21281806 -0.15274821 -0.043497287 0.009522132 -0.042580698
-0.019694813 -0.1832969 0.2209122 -0.2683031 0.06187337 0.19638851 -0.23599973 0.14610124
0.21831971 -0.24903013 0.28274733 -0.28405344 0.18473303 -0.27358153 -0.015674224 -0.11730907
-0.29410943 -0.27075294 -0.13870393 -0.045517717 0.31192878 -0.067820534 0.2553495 0.30868512
0.3310096 -0.020454776 -0.11775733 0.19596651 -0.069955885 -0.2372467 0.10041079 0.1654112
0.20057929 -0.27621117 -0.010146398 -0.25524977 -0.37947977 -0.12531182 0.2570068 -0.26866436
-0.24651198 0.1513688 -0.07610902 -0.25177327 -0.16745616 -0.23539679 -0.23654318 -0.16217044
0.23700854 -0.03831759 -0.26388484 0.3230302 0.18641515 0.110120475 0.0043831766 -0.30908895
0.0850462 -0.04360804 0.17528024 -0.19001083 0.09411492 0.29482457 -0.2331616 0.06944619
-0.10599892 -0.10322531 -0.23806661 -0.19250165 0.22375226 -0.0071971137 0.095592745 -0.31715447
0.3026207 -0.0018039371 -0.09806817 -0.17191194 -0.15881817 0.3525052 -0.14421286 0.14412455
-0.16073166 -0.10057726 0.13472016 0.1170021 -0.29810178 -0.074886285 0.02204223 -0.001903668
0.010189362 -0.31258237 0.08398233 0.2529034 0.11497082 0.0011586796 0.012739316 0.01079482
-0.2858301 -0.3303781 0.1559376 0.21187714 -0.3327365 -0.22378217 -0.32505322 0.16090472
-0.06975047 0.099685684 0.19723992 -0.09549975 0.29325518 -0.21495783 -0.050302166 -0.11941525
0.11318731 -0.23560305 0.31656134 -0.32876778 0.06897893 0.3271 -0.022723697 0.026815303
-0.083401054 0.027904663 -0.040645145 0.13274029 0.17477891 -0.14913402 0.3288472 -0.017713316
-0.18644187 0.005875252 -0.31096208 -0.31452283 0.32947704 0.28889194 -0.007709069 -0.1685056
-0.1997491 -0.18767025 -0.23762655 -0.020578273 0.28339413 -0.028459696 0.32632634 -0.14547813
0.29436612 0.24110396 0.061090823 0.008610039 0.27746168 -0.051210724 -0.22364402 0.17207924
-0.13478087 -0.31192982 -0.074532285 0.16409223 -0.09374137 0.28298926 -0.034809582 -0.12908727
0.061179508 -0.2953515 -0.06757146 -0.14272995 -0.19737504 -0.11548907 0.15452641 -0.30976707
-0.039058376 0.050340805 0.21712893 0.043584075 -0.083008744 0.30972117 0.22315407 -0.10857379
-0.11472098 -0.27428982 0.1048209 -0.2993899 -0.1922553 0.3648687 0.090912156 0.17462213
0.08105417 0.32360125 -0.056928787 -0.23338476 -0.21945485 -0.186261 0.16602665 0.105234526
-0.03134169 -0.11634938 0.26955903 0.2071915 -0.1850909 -0.27184466 0.033664264 0.07053185
0.20211315 -0.16561271 0.28484935 -0.15366916 -0.02570774 0.19620661 0.34410703 -0.1912451
0.14160363 -0.06732539 -0.1948669 -0.30685392 -0.11813162 -0.2485225 -0.216489 0.0309505
0.10728617 -0.30649203 0.12716636 0.24497436 -0.054666847 0.30075166 -0.052213512 -0.011013179
-0.108220994 -0.29615662 -0.32250816 -0.0052992404 -0.08693647 -0.2899814 0.17021139 -0.31865144
-0.007478477 0.2598497 0.03811831 -0.17650409 0.28379866 0.19113924 -0.3158892 0.29904246
00000000: 16bd f73d fc2d 9fbe 638e 69be 95aa 063d
00000010: 938c 24be a75b 883e 3904 663d 52b8 ad3d
00000020: ae24 83be 2254 163e 0a9e 25be faec 59be
00000030: 076a 1cbe 362a 32bd b702 1c3c 1969 2ebd
00000040: 0457 a1bc 2fb2 3bbe cf36 623e 065f 89be
00000050: ee6e 7d3d 121a 493e eaa9 71be 909b 153e
00000060: 348f 5f3e c101 7fbe 42c4 903e 746f 91be
00000070: a82a 3d3e e112 8cbe 3b67 80bc bd3f f0bd
00000080: 8395 96be 21a0 8abe 6708 0ebe c970 3abd
00000090: 21b5 9f3e 7ee5 8abd 2bbd 823e fa0b 9e3e
000000a0: 177a a93e c690 a7bc c12a f1bd 72ab 483e
000000b0: 0845 8fbd cdf0 72be 2ca4 cd3d 8e61 293e
000000c0: a864 4d3e 8d6b 8dbe 143d 26bc 19b0 82be
000000d0: 2c4b c2be be51 00be 6596 833e 608e 89be
000000e0: a36d 7cbe 6c00 1b3e 0cdf 9bbd 6de8 80be
000000f0: a179 2bbe db0b 71be 6038 72be 0210 26be
00000100: 5eb2 723e e8f2 1cbd ea1b 87be 3764 a53e
00000110: 9de3 3e3e d886 e13d c0a0 8f3b e840 9ebe
00000120: b42c ae3d 589e 32bd aa7c 333e 3392 42be
00000130: 53bf c03d 3ff3 963e eac1 6ebe ce39 8e3d
00000140: f615 d9bd cb67 d3bd bcc7 73be 271f 45be
00000150: 501f 653e c4d5 ebbb 21c6 c33d 1262 a2be
00000160: 1af1 9a3e 1672 ecba f7d7 c8bd af09 30be
00000170: 3ba1 22be 907b b43e 89ac 13be 6395 133e
00000180: d796 24be 73fb cdbd 15f4 093e cc9e ef3d
00000190: cca0 98be fb5d 99bd e891 b43c 8084 f9ba
000001a0: 48f1 263c cc0a a0be eefe ab3d 8e7c 813e
000001b0: d275 eb3d d6de 973a 90b8 503c c2dc 303c
000001c0: 5358 92be 5127 a9be 1bae 1f3e 52f6 583e
000001d0: 705c aabe 2727 65be 606d a6be 35c4 243e
000001e0: 56d9 8ebd 0228 cc3d 43f9 493e 5f95 c3bd
000001f0: 8b25 963e e81d 5cbe a509 4ebd fc8f f4bd
00000200: c0ce e73d ed41 71be 5414 a23e 4054 a8be
00000210: d344 8d3d a779 a73e 0c27 babc c4ab db3c
00000220: 2cce aabd 5298 e43c 867b 26bd 12ed 073e
00000230: 3ef9 323e 97b6 18be a95e a83e 841b 91bc
00000240: 9eea 3ebe 3085 c03b 6c36 9fbe 2309 a1be
00000250: 37b1 a83e a5e9 933e 5c9c fcbb bb8c 2cbe
00000260: 078b 4cbe a12c 40be 6054 73be c493 a8bc
00000270: 0919 913e 4f24 e9bc 3f14 a73e 38f8 14be
00000280: 28b7 963e f5e3 763e 5f3a 7a3d 1f11 0d3c
00000290: 750f 8e3e 56c2 51bd f002 65be 8a35 303e
000002a0: ff03 0abe 44b5 9fbe 62a4 98bd cb07 283e
000002b0: 7afb bfbd f8e3 903e 7e94 0ebd 742f 04be
000002c0: 5d97 7a3d 5038 97be e862 8abd cd27 12be
000002d0: af1c 4abe 8985 ecbd 2c3c 1e3e ca99 9ebe
000002e0: adfb 1fbd 2932 4e3d 0c57 5e3e 3785 323d
000002f0: 7d00 aabd c693 9e3e 8082 643e ef5b debd
00000300: d5f2 eabd b76f 8cbe 57ac d63d a249 99be
00000310: 93de 44be 12d0 ba3e 2730 ba3d 25d0 323e
00000320: bbff a53d 10af a53e 292e 69bd 6afc 6ebe
00000330: c6b8 60be 34bb 3ebe e402 2a3e 3385 d73d
00000340: 2560 00bd 9548 eebd a403 8a3e 022a 543e
00000350: 7888 3dbe 392f 8bbe 8ae3 093d 0173 903d
00000360: c0f6 4e3e 6196 29be c6d7 913e 735b 1dbe
00000370: 0a99 d2bc 63ea 483e cc2e b03e c1d5 43be
00000380: 8b00 113e e5e1 89bd 308b 47be f51b 9dbe
00000390: feee f1bd af7c 7ebe 4baf 5dbe e78b fd3c
000003a0: dab8 db3d 86ec 9cbe e637 023e 8fda 7a3e
000003b0: 58ea 5fbd 1ffc 993e d6dd 55bd 9f70 34bc
000003c0: f8a2 ddbd d7a1 97be ca1f a5be 40a5 adbb
000003d0: bf0b b2bd 7178 94be e54b 2e3e 4826 a3be
000003e0: 030e f5bb 050b 853e f221 1c3d 7dbd 34be
000003f0: 0f4e 913e 01ba 433e 3bbc a1be 181c 993e

module4.sepConv1.depthwise.weight f4 [64, 1, 3, 3]
-0.33233628 0.14690763 0.19972676 0.012772572 0.06135756 0.17911153 -0.20790331 -0.19410615
0.038874492 0.13087039 -0.18979771 0.32582727 0.12578896 0.017119972 -0.22693501 0.18634072
0.2711014 0.11337054 0.014506287 0.26848006 0.058444157 -0.0737367 0.08588894 -0.21498084
-0.27118602 0.2861016 0.07122567 -0.10747828 -0.28845364 0.017286777 -0.26864922 0.1798144
0.27479142 0.12516938 0.18957824 0.23418254 -0.0988408 -0.124798305 0.26228482 -0.1734501
-0.10035379 -0.3297499 0.26455635 -0.10773134 -0.315094 -0.203278 0.13429189 -0.22204083
0.21392363 -0.10466464 -0.25650254 0.14745243 -0.013494853 -0.14229062 -0.16023313 -0.16101384
0.026715862 0.25930882 0.2783168 0.2349036 -0.2798832 -0.22331738 -0.17077373 0.17519268
0.16074379 -0.25595063 0.22732335 -0.123465426 -0.08078567 0.24468854 -0.08921209 -0.33925313
0.3206684 -0.042029276 0.12850736 0.27827576 0.26555645 -0.09783901 0.105974115 -0.03583826
-0.2406011 -0.114437826 -0.19743921 -0.10643261 0.28710976 -0.07817603 0.08428929 -0.15767585
-0.21105808 -0.05142548 -0.2331653 0.11439222 0.28935802 -0.22049345 -0.23438072 -0.16520669
0.071839914 0.31391138 -0.3089769 -0.05955266 0.3263754 -0.28874874 -0.22190401 -0.2896874
-0.013790121 -0.2102301 0.17292163 0.024008429 -0.28507447 -0.28582633 0.09096736 -0.35612312
0.06966506 -0.15864044 0.21125704 -0.3420819 -0.116252445 0.28811705 0.27312064 -0.31573537
0.22302282 -0.15546389 0.21155839 0.26292294 -0.0133394385 -0.020346113 -0.021752056 -0.15107788
0.21700221 0.01900722 -0.20635097 0.11308965 0.31761885 0.1646819 -0.17873769 -0.2694058
0.012230629 -0.20982362 0.0071621207 -0.13906114 -0.19107929 -0.1897573 0.15566863 0.21691047
0.011960577 -0.28328475 -0.24641013 0.25069976 0.025927516 0.30186078 -0.2501969 -0.15900049
-0.11094754 -0.24016316 -0.06283536 -0.29944074 0.29044318 -0.18721469 0.112264656 0.06855083
-0.19388303 -0.1855262 -0.32875898 0.06644339 0.15458326 -0.11959103 0.21290879 -0.3395579
-0.021649806 0.27654362 0.1598285 -0.30949238 0.25990424 0.10331863 -0.1914396 0.01894519
0.18489794 -0.12717709 -0.116246805 0.15245536 0.09564853 0.012338084 0.03616289 -0.10673467
0.01925613 0.14329897 -0.21507385 -0.26697102 -0.045240216 -0.29451618 0.20232747 0.005097888
0.057317782 0.06695847 -0.0049038827 -0.07660714 -0.030436317 0.11774635 0.3255006 0.019689852
-0.1428752 -0.20151637 -0.23267047 0.2775257 -0.24368687 -0.13954853 0.24797085 0.2652707
0.12798285 0.15327482 -0.34291565 -0.12109637 0.29583004 -0.09029913 -0.10165257 0.15088949
-0.0060510896 0.20058966 -0.22467273 -0.11534815 0.15367343 0.02066489 0.20698887 -0.162651
0.2865587 0.12535653 -0.25871548 -0.19765058 -0.15954295 -0.21631469 0.0021424904 0.093910344
0.085560665 -0.033574216 -0.25001052 -0.1599759 -0.010511644 -0.06700677 0.13182575 -0.19531947
0.3197125 -0.046678826 -0.12748338 -0.100554876 0.14573292 0.13854633 0.19829692 -0.12945393
-0.36273286 0.20805368 0.19998029 -0.20534092 -0.09055529 -0.31311858 0.029045016 0.19436073
00000000: fb27 aabe f46e 163e 2c85 4c3e 0d44 513c
00000010: 1152 7b3d 0369 373e 9be4 54be c3c3 46be
00000020: dc3a 1f3d e302 063e 555a 42be d5d2 a63e
00000030: d2ce 003e 2f3f 8c3c a761 68be 1ad0 3e3e
00000040: cdcd 8a3e d02e e83d c7ab 6d3c 3876 893e
00000050: 2463 6f3d 4403 97bd 8ae6 af3d f023 5cbe
00000060: e5d8 8abe e97b 923e c4de 913d 931d dcbd
00000070: 32b0 93be 009d 8d3c 648c 89be 4421 383e
00000080: 76b1 8c3e 672c 003e cc20 423e 8ccd 6f3e
00000090: 0c6d cabd 4196 ffbd 324a 863e e79c 31be
000000a0: 4a86 cdbd fbd4 a8be ee73 873e 40a2 dcbd
000000b0: 0054 a1be 1c28 50be d083 093e ac5e 63be
000000c0: cc0e 5b3e 6a5a d6bd 4d54 83be c5fd 163e
000000d0: 8419 5dbc a2b4 11be 2714 24be d0e0 24be
000000e0: 39db da3c 20c4 843e 8a7f 8e3e 928a 703e
000000f0: da4c 8fbe 50ad 64be 4fdf 2ebe b665 333e
00000100: 059a 243e f60b 83be 74c7 683e 71db fcbd
00000110: f572 a5bd a28f 7a3e d4b4 b6bd 96b2 adbe
00000120: a62e a43e e426 2cbd 6f97 033e 297a 8e3e
00000130: 04f7 873e d25f c8bd f508 d93d 24cb 12bd
00000140: 2260 76be 615e eabd 812d 4abe 57f9 d9bd
00000150: 0d00 933e c11a a0bd dd9f ac3d c775 21be
00000160: 9c1f 58be 86a3 52bd e2c2 6ebe 7846 ea3d
00000170: bc26 943e 09c9 61be 8001 70be f12b 29be
00000180: ce20 933d feb8 a03e 3832 9ebe 7ded 73bd
00000190: ad1a a73e e0d6 93be ce3a 63be e851 94be
000001a0: f6ef 61bc 8f46 57be 5e12 313e 53ad c43c
000001b0: 48f5 91be d457 92be 184d ba3d c555 b6be
000001c0: 8eac 8e3d a472 22be c453 583e 5c25 afbe
000001d0: c315 eebd 1484 933e 78d6 8b3e 11a8 a1be
000001e0: 1860 643e ed31 1fbe c3a2 583e d69d 863e
000001f0: a98d 5abc e4ac a6bc 5e31 b2bc 29b4 1abe
00000200: d435 5e3e 08b5 9b3c ab4d 53be 8c9b e73d
00000210: f09e a23e 5fa2 283e 0307 37be 8fef 89be
00000220: fa62 483c 01dc 56be 39b0 ea3b 0b66 0ebe
00000230: 4aaa 43be bd4f 42be 9967 1f3e c71d 5e3e
00000240: 4cf6 433c b30a 91be f052 7cbe b85b 803e
00000250: f165 d43c 7f8d 9a3e cf19 80be 06d1 22be
00000260: 7738 e3bd 55ed 75be d3af 80bd 4c50 99be
00000270: f8b4 943e 35b5 3fbe 03eb e53d 6164 8c3d
00000280: 4689 46be 95fa 3dbe 1953 a8be 7913 883d
00000290: 134b 1e3e 24ec f4bd c304 5a3e 88da adbe
000002a0: ef5a b1bc 2097 8d3e 15aa 233e c975 9ebe
000002b0: 2b12 853e b898 d33d be08 44be f132 9b3c
000002c0: e355 3d3e b63a 02be ce12 eebd 421d 1c3e
000002d0: 60e3 c33d ad25 4a3c 8a1f 143d b597 dabd
000002e0: 08bf 9d3c f7bc 123e 523c 5cbe 6db0 88be
000002f0: ce4d 39bd d3ca 96be ef2e 4f3e 2f0c a73b
00000300: 0dc6 6a3d 8621 893d c0b0 a0bb 34e4 9cbd
00000310: 9555 f9bc 0025 f13d 04a8 a63e 9d4c a13c
00000320: e04d 12be 4f5a 4ebe 2b41 6ebe d917 8e3e
00000330: 0d89 79be cfe5 0ebe 12ec 7d3e 90d1 873e
00000340: f00d 033e 13f4 1c3e a492 afbe 6001 f8bd
00000350: 0977 973e c0ee b8bd 392f d0bd c682 1a3e
00000360: 3848 c6bb 6067 4d3e 9c10 66be a73b ecbd
00000370: 915c 1d3e 6a49 a93c e4f4 533e fc8d 26be
00000380: d2b7 923e 765d 003e 5b76 84be ea64 4abe
00000390: 3a5f 23be 9981 5dbe 0669 0c3b 1154 c03d
000003a0: 6e3a af3d 1e85 09bd 6101 80be b9d0 23be
000003b0: 0839 2cbc d83a 89bd 54fd 063e d401 48be
000003c0: 5bb1 a33e 4c32 3fbd 018b 02be b7ef cdbd
000003d0: 033b 153e 17df 0d3e 590e 4b3e 928f 04be
000003e0: 1fb8 b9be 060c 553e a2c7 4c3e e444 52be
000003f0: 0d75 b9bd 1451 a0be d0ef ed3c 8006 473e

module4.sepConv2.depthwise.weight f4 [128, 1, 3, 3]
0.18790722 0.05830633 0.15786225 -0.1528164 -0.022327362 0.19238396 -0.101180434 -0.26825565
0.09885285 0.1814656 -0.0022638245 0.31164858 0.25954983 0.25724345 0.057710312 0.22324964
0.0983398 0.15231419 -0.32364 0.21914044 -0.10418967 0.11168695 0.032934874 -0.18827969
-0.09398228 -0.2693819 0.0085791 -0.33163518 0.27699107 0.20115691 0.18837748 0.11297173
0.3202946 -0.25478598 -0.108246945 -0.1415252 0.21660754 0.28836596 -0.29872406 0.004977416
0.029614698 0.31966385 0.13036346 -0.07847957 -0.043420933 0.23286238 -0.2854418 -0.15368044
-0.22148162 -0.305561 0.17156559 0.1460607 -0.2329722 -0.16346806 0.08472769 -0.19798444
0.30281493 -0.012553461 -0.22194901 0.296579 -0.1709612 -0.058272503 -0.04121311 0.012226345
0.27842185 0.034986 0.15600024 -0.2970087 0.10508011 0.10067847 -0.16417117 -0.18152444
0.2433559 0.12574542 0.005444212 0.12700076 0.2601594 -0.21402262 -0.011394392 -0.28774068
-0.20191927 0.28150713 -0.26618072 -0.27849945 0.19390911 0.1159596 0.10748763 -0.22433022
0.009052779 0.3467258 -0.14540325 0.3517524 0.09482656 0.11040627 -0.28856993 0.2841469
0.13293462 0.11971355 -0.033049636 0.22805136 0.036663778 0.1212428 0.29093224 0.1994345
-0.03456272 0.102555364 0.04780348 -0.3077592 -0.23801975 0.20453185 0.1634081 -0.10475412
-0.15552025 -0.15209419 -0.22049253 0.07012077 0.15909973 0.20518175 0.13025038 -0.30016983
0.01801815 -0.012150489 -0.054767348 -0.050521396 0.14599268 0.048538584 -0.093824364 -0.092618
0.2833334 0.33917642 -0.07210082 0.21203962 -0.24322067 -0.014993654 -0.032099277 -0.09369638
0.034911487 -0.2960304 0.25033295 0.28800112 0.10651833 0.2593266 -0.2400224 -0.037769955
0.23079997 0.077641025 -0.10665838 -0.14924236 0.23133375 0.16483974 0.2571342 -0.31517792
0.18065174 -0.14773081 0.13562766 0.17482544 0.11704266 0.08564584 0.06623881 -0.23710583
0.19415902 -0.046313662 -0.13825008 -0.2839165 0.27850723 0.26851308 0.34692934 0.20360333
0.11207268 -0.28216857 0.0125151705 -0.28956372 -0.18079919 0.27489504 -0.23068134 -0.24570727
0.24929155 -0.26771936 0.14054598 -0.2633265 -0.2544856 0.3754199 -0.25738394 -0.23679745
-0.2596021 0.05471087 0.21341701 -0.23820741 0.08929112 -0.09831197 0.01936761 0.030830078
-0.2720188 -0.17378291 -0.033852607 0.029161183 -0.020602938 0.189408 0.31419343 -0.28264743
0.1162821 0.20403993 -0.32123262 0.14355113 -0.04966245 0.26240236 -0.30651757 -0.22096515
0.17587128 0.11393177 -0.19479726 -0.14827833 -0.2735871 0.11455513 0.044134837 0.34707874
-0.27052116 0.13228567 -0.26158246 -0.19215187 -0.22142386 -0.023117164 -0.2343429 0.06073455
-0.0038008892 -0.14374627 0.008931464 0.17215441 -0.12595119 -0.07884839 0.184212 0.3550895
-0.2662352 0.19867954 0.029259864 -0.28787985 -0.27126047 0.34459803 0.24730326 0.34389
0.26409018 -0.24048588 0.261236 -0.04106134 0.11047551 0.15554115 -0.2622057 0.17750728
0.060477994 -0.32362536 -0.0012763026 0.06873258 0.1608836 0.28226724 0.116411634 0.19105083
00000000: c06a 403e 9ed2 6e3d a4a6 213e e77b 1cbe
00000010: dfe7 b6bc 4d00 453e b037 cfbd ce58 89be
00000020: 5d73 ca3d 1ed2 393e ac5c 14bb 6790 9f3e
00000030: b7e3 843e 6ab5 833e a661 6c3d 8e9b 643e
00000040: 6166 c93d 40f8 1b3e 24b4 a5be 5a66 603e
00000050: 6561 d5bd 21bc e43d b8e6 063d 64cc 40be
00000060: c879 c0bd 6dec 89be 5a8f 0c3c 16cc a9be
00000070: c6d1 8d3e 14fc 4d3e 07e6 403e b95d e73d
00000080: a7fd a33e 4f73 82be 93b0 ddbd fbeb 10be
00000090: 5ece 5d3e b4a4 933e 5cf2 98be 9719 a33b
000000a0: 869a f23c fbaa a33e 007e 053e e6b9 a0bd
000000b0: 26da 31bd 7a73 6e3e 6d25 92be 685e 1dbe
000000c0: 14cc 62be 7e72 9cbe e4ae 2f3e f090 153e
000000d0: 4490 6ebe 2c64 27be b685 ad3d 6fbc 4abe
000000e0: 8f0a 9b3e 08ad 4dbc 9a46 63be 34d9 973e
000000f0: 7410 2fbe 26af 6ebd 14cf 28bd 0251 483c
00000100: 4f8d 8e3e 7b4d 0f3d 87be 1f3e 8611 98be
00000110: 3e34 d73d 8430 ce3d 7d1c 28be 8be1 39be
00000120: 4a32 793e 68c3 003e 5c65 b23b 7d0c 023e
00000130: 9d33 853e bf28 5bbe 8baf 3abc bf52 93be
00000140: edc3 4ebe b421 903e d748 88be 7b97 8ebe
00000150: 1c90 463e 3a7c ed3d 7922 dc3d d2b6 65be
00000160: 1b52 143c 0b86 b13e 97e4 14be e418 b43e
00000170: 6d34 c23d af1c e23d 70bf 93be b47b 913e
00000180: 0320 083e 612c f53d 0e5f 07bd 4c86 693e
00000190: c22c 163d 254e f83d 12f5 943e 8f38 4c3e
000001a0: a491 0dbd 8c08 d23d 95cd 433d 9d92 9dbe
000001b0: 73bb 73be cc70 513e 7454 273e 5489 d6bd
000001c0: b340 1fbe 94be 1bbe cbc8 61be 7a9b 8f3d
000001d0: 0aeb 223e 2a1b 523e 5b60 053e dcaf 99be
000001e0: cd9a 933c d812 47bc ba53 60bd 86ef 4ebd
000001f0: 1b7f 153e 65d0 463d fd26 c0bd 82ae bdbd
00000200: 1311 913e 88a8 ad3e 98a9 93bd ea20 593e
00000210: d70e 79be f1a7 75bc 887a 03bd e3e3 bfbd
00000220: 59ff 0e3d 4c91 97be a42b 803e e274 933e
00000230: 4826 da3d 75c6 843e 6fc8 75be abb4 1abd
00000240: d456 6c3e 4202 9f3d b56f dabd fdd2 18be
00000250: c1e2 6c3e c0cb 283e 18a7 833e 005f a1be
00000260: c5fc 383e bf46 17be fae1 0a3e 7105 333e
00000270: 10b4 ef3d 1667 af3d 37a8 873d dfcb 72be
00000280: 9fd1 463e 65b3 3dbd 6e91 0dbe 815d 91be
00000290: 8098 8e3e 8c7a 893e b9a0 b13e 647d 503e
000002a0: 5c86 e53d 6678 90be 6e0c 4d3c b241 94be
000002b0: 6c23 39be 0bbf 8c3e bb37 6cbe b09a 7bbe
000002c0: 4946 7f3e 8312 89be 49eb 0f3e bbd2 86be
000002d0: f04b 82be 0a37 c03e d4c7 83be 087b 72be
000002e0: 91ea 84be 8118 603d fd89 5a3e a5ec 73be
000002f0: 43de b63d c957 c9bd d2a8 9e3c 5c8f fc3c
00000300: 0c46 8bbe 26f4 31be 08a9 0abd 6fe3 ee3c
00000310: 7ec7 a8bc 2cf4 413e f6dd a03e 2ab7 90be
00000320: 4f25 ee3d d8ef 503e 9a78 a4be 11ff 123e
00000330: da6a 4bbd 9a59 863e dfef 9cbe b044 62be
00000340: 9a17 343e 0f55 e93d ef78 47be 46d6 17be
00000350: 9c13 8cbe e19b ea3d bbc6 343d 4eb4 b13e
00000360: c081 8abe e575 073e 23ee 85be 76c3 44be
00000370: f0bc 62be 3560 bdbc 96f7 6fbe cbc4 783d
00000380: 5718 79bb 3932 13be 4655 123c 3f49 303e
00000390: 59f9 00be 447b a1bd 12a2 3c3e 4ace b53e
000003a0: fb4f 88be a672 4b3e 62b2 ef3c fd64 93be
000003b0: a7e2 8abe 276f b03e 113d 7d3e 5a12 b03e
000003c0: d436 873e ee41 76be bac0 853e f02f 28bd
000003d0: fc40 e23d 2e46 1f3e d33f 86be 78c4 353e
000003e0: c6b7 773d 39b2 a5be 9c49 a7ba abc3 8c3d
000003f0: acbe 243e 5585 903e 3969 ee3d d4a2 433e

last_conv.bias f4 [2]
-0.023552977 0.013263937
00000000: 2cf2 c0bc fc50 593c

last_conv.weight f4 [2, 128, 3, 3]
0.0075652204 -0.011208966 -0.020784974 -0.0012875298 -0.024592625 -0.03244637 -0.0022599895 -0.024070185
-0.059697747 -0.015807768 -0.022909226 0.031554922 -0.023957897 -0.035873193 0.017688867 -0.05870105
-0.024771793 -0.046995874 0.019299041 0.030144148 0.0021579172 0.016342586 0.0032290942 0.023095267
0.00018675945 -0.019278364 0.017739994 -0.03442204 0.006960971 0.004211163 -0.02095904 -0.008760148
0.022177877 -0.03110628 -0.006939556 0.02482185 -0.010251473 0.008986219 -0.015762618 0.0017972199
0.02048833 0.007982242 0.0026261006 -0.0008277468 -0.02687084 -0.008412655 0.012535906 0.030242307
-0.0075728903 0.013281733 0.048948772 -0.00033941024 0.015183443 0.064955086 0.00188578 -0.023156347
0.03388073 0.00486757 0.025954224 -0.011729708 -0.01724902 -0.0074968887 0.0193645 -0.026511189
0.009578715 -0.034755196 -0.0135067785 -0.034319453 -0.042250764 -0.039005656 -0.020230541 -0.0375589
0.016300075 -0.041125894 -0.0072578327 0.032855585 0.023727197 0.020788606 0.0027115867 0.033725426
0.011386992 -0.0013364581 0.010398319 0.001858877 0.006808157 0.016184404 -0.045669764 -0.0052049668
-0.01109201 -0.04537902 0.0008538871 -0.0070934263 0.0154993385 -0.013516055 0.015020525 0.020248493
0.018256273 -0.018872308 -0.024485432 0.001881175 -0.008856038 -0.0033605753 0.03355747 0.017567385
0.022916595 0.029867051 0.029243998 0.028465101 0.0049214703 0.03878207 0.040617477 0.008199865
0.003956021 0.04395514 0.011849742 0.00755016 -0.022182433 0.0027414851 0.01017252 -0.04081171
-0.016149368 -6.9397414e-05 0.01682097 -0.0041643176 -0.012207784 -0.013610234 0.024512356 0.008823207
-0.025746763 -0.01870177 -0.018823428 -0.033237394 0.009125589 -0.0066927066 -0.02085808 0.018729957
0.035379577 0.04033742 0.017670525 0.0039296835 0.009527306 0.0046306397 -0.0020242496 0.023717217
-0.023042839 -0.0051241457 -0.013834438 0.014432888 -0.036608826 -0.044214632 0.0020823008 0.0126159405
-0.019898409 0.035997864 0.04448214 0.031247783 0.0484064 0.03755272 -0.002071695 0.0050575756
0.031468157 0.034078468 0.008645189 -0.015860865 -0.0067338804 0.009478969 -0.007399901 0.0010967785
-0.026028741 -0.035348292 -0.024245301 0.004101211 0.012022911 -0.0026707766 0.012952959 -0.038015828
-0.004024126 0.010479115 0.0046405024 0.008596263 0.035492722 0.014342813 0.016010327 0.034702014
0.044097234 0.040094003 0.017764298 0.02325886 0.013822925 0.012942558 -0.009779344 -0.027925793
-0.01506514 0.0017439378 -0.017445505 -0.009856853 -0.025697812 -0.027532393 -0.005053067 0.03687352
0.007353503 -0.020899182 0.046013124 0.026797827 -0.032685123 -0.0244234 -0.0011094838 0.013815465
-0.034995247 -0.035803672 0.043471698 -0.0048349597 0.00044501017 -0.00091945904 0.0074748234 0.014045714
0.032110713 0.00824604 -0.023186766 0.007760233 0.014529552 -0.009525252 -0.029742712 0.022459641
-0.0039196815 0.046128914 0.0069070277 0.03266565 0.036338218 0.034834486 0.01405379 0.025613153
0.035000253 0.014643333 -0.008469479 -0.029183552 0.0053894706 -0.036206644 -0.050259773 -0.031342983
-0.016130395 -0.049060944 -0.0033503787 0.040931307 -0.0051350193 -0.04813885 0.025303742 0.023152761
-0.046620715 -0.028249055 -0.020132283 0.0029922684 -0.028673545 -0.017359426 -0.026570119 0.0035339163
00000000: abe5 f73b d0a5 37bc 4045 aabc 55c2 a8ba
00000010: 7976 c9bc 7ce6 04bd 551c 14bb d62e c5bc
00000020: a085 74bd 4b7f 81bc 21ac bbbc bc3f 013d
00000030: 5a43 c4bc c5ef 12bd 3ee8 903c 8370 70bd
00000040: 37ee cabc bf7e 40bd 0619 9e3c dcf0 f63c
00000050: d86b 0d3b e3e0 853c 369f 533b 4932 bd3c
00000060: dcd4 4339 a9ed 9dbc 7753 913c 20fe 0cbd
00000070: db18 e43b ccfd 893b 4bb2 abbc b986 0fbc
00000080: 61ae b53c 99d2 febc 3765 e3bb 3157 cb3c
00000090: cbf5 27bc ef3a 133c 9b20 81bc b190 eb3a
000000a0: 24d7 a73c f3c7 023c a81a 2c3b 26fd 58ba
000000b0: 3c20 dcbc 3cd5 09bc 6763 4d3c b7be f73c
000000c0: 0226 f8bb a09b 593c 827e 483d dff2 b1b9
000000d0: fac3 783c 2c07 853d 472c f73a 61b2 bdbc
000000e0: 85c6 0a3d 2380 9f3b f49d d43c f62d 40bc
000000f0: d14d 8dbc 76a8 f5bb 4da2 9e3c fe2d d9bc
00000100: 0bf0 1c3c 775b 0ebd 894b 5dbc 8e92 0cbd
00000110: 230f 2dbd 65c4 1fbd 85ba a5bc 5cd7 19bd
00000120: bc87 853c a073 28bd 1dd3 edbb 9493 063d
00000130: 8a5f c23c de4c aa3c e0b4 313b ac23 0a3d
00000140: 8290 3a3c 182c afba b65d 2a3c 90a5 f33a
00000150: f616 df3b 2895 843c 3810 3bbd 6d8e aabb
00000160: 43bb 35bc 5adf 39bd 65d7 5f3a f96f e8bb
00000170: f0f0 7d3c 7272 5dbc a618 763c 2be0 a53c
00000180: 2e8e 953c 199a 9abc ac95 c8bc c291 f63a
00000190: ea18 11bc 193d 5cbb 8f73 093d 7ae9 8f3c
000001a0: 95bb bb3c bfab f43c 1c91 ef3c a52f e93c
000001b0: 4944 a13b f3d9 1e3d 835e 263d ba58 063c
000001c0: 82a1 813b 4e0a 343d 6c25 423c 5567 f73b
000001d0: efb7 b5bc 7daa 333b a4aa 263c 2e2a 27bd
000001e0: ae4b 84bc 7489 91b8 22cc 893c d474 88bb
000001f0: 2803 48bc 75fd 5ebc 23ce c83c 368f 103c
00000200: e0ea d2bc 7434 99bc 9733 9abc ef23 08bd
00000210: 7f83 153c 7e4e dbbb 90de aabc 916f 993c
00000220: 2dea 103d da38 253d c7c1 903c 93c4 803b
00000230: 6b18 1c3c 9fbc 973b 46a9 04bb 9c4a c23c
00000240: 56c4 bcbc 73e8 a7bb d7a9 62bc eb77 6c3c
00000250: 23f3 15bd 671a 35bd 3677 083b 17b3 4e3c
00000260: fd01 a3bc 7f72 133d e832 363d 5afb ff3c
00000270: ca45 463d e2d0 193d 46c5 07bb 05ba a53b
00000280: c1e4 003d dd95 0b3d 8da4 0d3c a5ee 81bc
00000290: e2a7 dcbb ad4d 1b3c de7a f2bb c8c1 8f3a
000002a0: 3a3a d5bc 5fc9 10bd 159e c6bc 7463 863b
000002b0: befb 443c 3208 2fbb a638 543c 7cb6 1bbd
000002c0: d1dc 83bb 98b0 2b3c 5b0f 983b 57d7 0c3c
000002d0: d160 113d 1efe 6a3c 1728 833c b323 0e3d
000002e0: 4d9f 343d 9c39 243d 6f86 913c 5d89 be3c
000002f0: 8d79 623c 060d 543c 8b39 20bc a2c4 e4bc
00000300: c7d3 76bc d894 e43a e0e9 8ebc a37e 21bc
00000310: 3884 d2bc 9d8b e1bc 3394 a5bb b008 173d
00000320: a7f5 f03b c334 abbc 4278 3c3d 1e87 db3c
00000330: d6e0 05bd 9513 c8bc 196c 91ba 435a 623c
00000340: 2d57 0fbd dfa6 12bd 610f 323d 956e 9ebb
00000350: 4150 e939 da07 71ba 5def f43b ff1f 663c
00000360: 8686 033d 661a 073c 2cf2 bdbc 8d49 fe3b
00000370: 5c0d 6e3c cd0f 1cbc fda6 f3bc 48fd b73c
00000380: ac70 80bb acf1 3c3d 5954 e23b 6bcc 053d
00000390: 62d7 143d 9bae 0e3d de41 663c add2 d13c
000003a0: 6d5c 0f3d 97ea 6f3c 92c3 0abc 5812 efbc
000003b0: 289a b03b 6b4d 14bd 31dd 4dbd 8061 00bd
000003c0: e423 84bc 21f4 48bd 0792 5bbb 96a7 273d
000003d0: aa43 a8bb 3e2d 45bd cb49 cf3c dcaa bd3c
000003e0: 5df5 3ebd 906a e7bc 75ec a4bc ef19 443b
000003f0: c8e4 eabc 5b35 8ebc 94a9 d9bc 4799 673b

onnx::Conv_142 f4 [8, 1, 3, 3]
2.4783213 -1.9309334 -1.5562316 -4.4860206 1.9419233 -2.6254056 -0.6810941 1.7953671
1.2867719 4.889114 -6.8832383 0.204503 1.51847 6.1324434 -1.416693 -0.19641633
4.6183043 -6.2065415 -1.1407682 1.5987854 -0.95391995 -2.1184452 -1.0900698 0.5837924
-1.610425 0.09960499 -0.5007191 0.5813842 0.7278682 0.14178172 -0.12477746 0.97056144
0.65404224 1.2254483 0.63225484 0.23695873 0.6578227 -4.2605276 -4.769498 -0.23043151
-1.462395 2.7124217 3.448725 2.871084 0.71465695 -2.8459864 -3.5493572 -0.30823803
2.1641812 2.770316 2.2985358 1.0136974 1.6659865 0.17996904 1.167959 -3.158929
-1.3578839 -1.6747148 1.2486899 2.5454605 5.712378 -3.0307755 -5.2948833 2.3178294
-0.93173724 1.6518109 1.5596232 0.3338821 -0.7399595 0.3340034 -0.15136218 0.6140495
00000000: d19c 1e40 d328 f7bf 9932 c7bf 7b8d 8fc0
00000010: f190 f83f a506 28c0 2f5c 2ebf 97ce e53f
00000020: f1b4 a43f 9f73 9c40 7d43 dcc0 3c69 513e
00000030: 3a5d c23f fa3c c440 3256 b5bf 5d21 49be
00000040: 26c9 9340 fd9b c6c0 b104 92bf 00a5 cc3f
00000050: 1934 74bf 9b94 07c0 6887 8bbf 6b73 153f
00000060: 6822 cebf b3fd cb3d 202f 00bf 98d5 143f
00000070: 9255 3a3f 3a2f 113e 538b ffbd b776 783f
00000080: 506f 273f 7ddb 9c3f 74db 213f 4fa5 723e
00000090: 1267 283f 3e56 88c0 ba9f 98c0 3df6 6bbe
000000a0: c22f bbbf 5198 2d40 e9b7 5c40 d7bf 3740
000000b0: c2f3 363f a424 36c0 ab28 63c0 60d1 9dbe
000000c0: f281 0a40 db4c 3140 361b 1340 d6c0 813f
000000d0: 0c3f d53f ce49 383e ae7f 953f e52b 4ac0
000000e0: 24cf adbf 0e5d d6bf 12d5 9f3f d3e8 2240
000000f0: cdcb b640 3af8 41c0 af6f a9c0 5157 1440
00000100: 5586 6ebf 8a6e d33f bca1 c73f 98f2 aa3e
00000110: fc6d 3dbf 7e02 ab3e b0fe 1abe 5932 1d3f

onnx::Conv_143 f4 [8]
2.0156298 -1.348257 2.764001 -2.7004898 0.12531212 -1.8620954 2.0804276 -2.6401296
00000000: 1400 0140 af93 acbf 64e5 3040 d3d4 2cc0
00000010: d251 003e 2459 eebf ba25 0540 e2f7 28c0
